Server/lstm_checkpoint.pt (torch, 143073 bytes, 11 tensors)

weight_ih_l0 f4 [256, 12]
000000 6a 1f 08 3e c2 61 1f 3d ba fe 6e bd b5 4c a5 be
       0.13293234 0.03891159 -0.058348395 -0.32285085
000010 6d 9b c3 bc 04 8c 08 bf 15 4d 41 3f 73 af 9c 3b
       -0.023877824 -0.53338647 0.7550824 0.0047816574
000020 0d 67 8e 3d c3 ab 98 bb 79 fd f5 3c a2 d7 73 bd
       0.06953249 -0.0046591475 0.030028092 -0.059531815
000030 77 d4 0f bd 80 93 1c bd 0b b9 91 3e 71 4e 25 bf
       -0.03511473 -0.038226604 0.2846149 -0.6457282
000040 9e 22 36 bd cc b6 a2 be 3d e3 45 3d ba 7d db bd
       -0.044466607 -0.31780088 0.048312414 -0.1071734
000050 82 6e ec bd 6e d3 f9 bd 9f 55 05 be b9 cc c3 be
       -0.11544515 -0.1219853 -0.13020943 -0.38242128
000060 4b 74 bb 3d 9f f0 10 be 40 0d e5 3d 54 27 db bd
       0.091530405 -0.1415429 0.11184168 -0.107008606
000070 57 ce c9 3d 30 f6 13 3f 1c 22 89 be 45 59 09 3d
       0.09853809 0.5779753 -0.26783836 0.0335324
000080 ca 06 cd 3d ae ee 85 bd ee e3 da bd 4d 9b d5 3b
       0.100110605 -0.06539665 -0.106880054 0.0065187574
000090 00 0e 00 be a9 2b 97 bd 63 ed e2 3c 76 a5 e1 3d
       -0.1250534 -0.073813744 0.027701085 0.11017887
0000a0 c5 dd 0f be ee 87 c2 bc e3 f4 ca bd ac 7f 67 3d
       -0.14049442 -0.023746457 -0.0990999 0.05651824
0000b0 17 58 76 bd 8c 14 66 3d 75 0f 12 be 9d 1e ca 3c
       -0.060142603 0.05617194 -0.14263709 0.0246728
0000c0 93 b1 b6 3d 71 d2 4e 3e 84 d4 d6 bd 86 92 8a be
       0.08920588 0.20197465 -0.10489753 -0.27064914
0000d0 97 77 b8 bd cb f7 8f 3e 07 14 c3 be 84 d8 9a bd
       -0.09007185 0.2811874 -0.38101217 -0.07560828
0000e0 3d 77 c2 3c dc 95 d1 3c f3 d0 d8 bc c2 a2 e3 bd
       0.023738498 0.025584154 -0.026466822 -0.11115028
0000f0 81 69 f4 3d 11 3d c9 3d 45 c9 04 bc db 72 81 be
       0.11934186 0.098261006 -0.008104627 -0.2528294
000100 5e 9f 30 3d 32 fe 80 3e 11 56 4f 3e ff 2d 88 bd
       0.043120734 0.25193936 0.20247675 -0.06649398
000110 1b 81 37 3d f5 f2 2c be 74 90 86 be 33 1c ab 3d
       0.04480086 -0.16889556 -0.26282084 0.08354988
000120 fc 8f ee 3d 4a 3d 4a be 55 1c 69 3e 3d f7 66 be
       0.116485566 -0.19749942 0.22764714 -0.22555251
000130 6f 3d 95 bd 03 70 3c 3d 52 1b 54 be 84 96 00 3e
       -0.07287108 0.04600526 -0.20713547 0.12557417
000140 bd b1 52 3d cf 55 db bd 9b 84 0c be 47 56 24 3e
       0.051439036 -0.10709726 -0.1372246 0.16048537
000150 a3 c6 e4 bd 6d b2 87 be f8 1e 09 be d7 5a 1f 3f
       -0.111706994 -0.26503316 -0.1339072 0.62247986
000160 15 a6 56 bb a8 13 67 be 88 93 33 3e da ff 92 3e
       -0.0032752801 -0.22566092 0.17536747 0.28710824
000170 d1 4f c2 3d fa 17 93 bd 93 80 f0 bc 43 eb 10 bc
       0.0948788 -0.071823075 -0.029358184 -0.008845153
000180 60 82 02 3d 9c 4b 11 3d c7 02 aa 3d 69 c6 3d be
       0.031862617 0.035472497 0.08301311 -0.18532719
000190 74 ee c8 3d 37 fd 6b be 8d 00 19 3e 84 7e c9 3c
       0.09811106 -0.23045813 0.14941616 0.02459646
0001a0 27 73 2a 3d 09 d0 cd ba 3f ea 8c bd 17 bf a7 bd
       0.041613724 -0.0015702258 -0.068806164 -0.08190744
0001b0 2f 23 f6 bc f9 cb 17 3e df 7c 9f be 05 fa 88 be
       -0.030046074 0.14823903 -0.31149957 -0.2675325
0001c0 a9 12 34 bd e9 a9 b1 3e be 22 6c be 50 cf 7e be
       -0.04396311 0.34699944 -0.23060128 -0.24883771
0001d0 cb 85 a3 bc ec 28 d3 bb 06 34 cc 3c 12 cf 1b bd
       -0.019961258 -0.0064440873 0.02492715 -0.038039275
0001e0 d3 9d 9d bb e6 63 9b be 39 4e 36 be f8 3c 4a bd
       -0.004810074 -0.30349654 -0.17803277 -0.04937455
0001f0 74 11 3d bd b0 34 c8 be 2b c6 40 3e 43 45 82 3d
       -0.046159223 -0.39102697 0.18825595 0.06360867
000200 65 62 e6 bc 31 ea 21 be fa 87 2a be 4a ed 2c bd
       -0.02812309 -0.15811993 -0.16653433 -0.042218484
000210 91 68 a9 bc 01 c2 dd be ca e4 91 3e f9 2f d7 3e
       -0.020679744 -0.43312076 0.28494865 0.42028788
000220 35 bc 3e 3d ca ca 65 bd 94 cb e7 bd 06 33 96 3b
       0.046566207 -0.056101598 -0.11318126 0.004583719
000230 74 53 f5 3b b4 23 33 bd c0 ef 0c bd 84 1d 19 be
       0.007486755 -0.04373522 -0.03440833 -0.14952666
000240 5a 4a 91 3d 24 a2 bf 3e d6 22 af 3d 13 6e 54 bd
       0.070942596 0.3742839 0.08551566 -0.051862787
000250 dd 12 89 3c 90 71 49 bd ae 32 c2 bd 00 8e 23 bd
       0.016732628 -0.049180567 -0.09482323 -0.039930344
000260 fa e2 87 bd e6 82 c7 3d ca 66 c4 3d 2b a4 da bc
       -0.06635089 0.09741764 0.09589918 -0.02668961
000270 1d c5 15 3d af a1 d6 3b dc 00 35 3e 23 b9 f3 be
       0.036564935 0.006550036 0.17676109 -0.47602186
000280 3d be 0c be 7e a0 b0 3e 78 6a 89 3d 48 83 a7 bd
       -0.13744445 0.34497446 0.067097604 -0.08179337
000290 64 d4 25 be 60 c3 0a 3c cc 0c 43 be 50 a8 bd be
       -0.16194302 0.008469433 -0.1904785 -0.37042475
0002a0 80 53 8f bd e9 7e 1b be 8a 13 f6 3d b6 72 1f be
       -0.06998348 -0.15185131 0.120154455 -0.15571102
0002b0 8c 91 ce bd 02 22 93 bc 0c 46 58 be 7c 86 a3 bd
       -0.100863546 -0.017960552 -0.21120471 -0.07984635
0002c0 22 e4 c2 bd 79 03 c6 be 20 f0 d5 be a7 e7 03 bd
       -0.09516169 -0.38674524 -0.41784763 -0.032203343
0002d0 eb 82 f6 bd 74 ff db bd a3 ca ce 3d ef de 1a 3e
       -0.12036689 -0.10742083 0.10097244 0.15124105
0002e0 94 fb ae bd ff be 21 be 1d de 05 be 7b 3f 0c bd
       -0.085440785 -0.15795515 -0.1307301 -0.034240227
0002f0 f3 50 a4 bd 87 42 09 3d 31 42 ba bd f1 1a 44 3d
       -0.08023252 0.03351071 -0.09094656 0.047877256
000300 2b fd 90 3d 0a e1 54 3e 08 20 91 bc 30 8b d3 bc
       0.07079538 0.2078897 -0.017715469 -0.025823206
000310 b8 b5 2c be 9b 35 0a be 5a 33 8a 3d f5 d6 62 be
       -0.16866195 -0.13497011 0.06748076 -0.22152312
000320 fd 95 1d be 5a 84 fc bc 35 4d 5a be 77 9d ed bd
       -0.15389247 -0.030824829 -0.21318515 -0.116023
000330 a4 77 d8 bd d1 e1 ca bd d4 86 35 be 4f 6e 4b bd
       -0.10569695 -0.09906352 -0.17727214 -0.049665745
000340 46 46 15 be 87 e5 32 bd 1c 06 15 3e 4d 17 82 bd
       -0.14577588 -0.043675926 0.14553112 -0.063521005
000350 d4 6e de bd b7 31 22 bc 02 ff 84 3d 56 62 17 be
       -0.108609825 -0.009899548 0.064939514 -0.14783606
000360 bf c6 ed bd 95 3b 06 bd ae 9a e7 3d e3 f3 10 bd
       -0.116101734 -0.032771666 0.113088 -0.03538884
000370 af 03 c6 bd 5f 5f f3 bd 5c c4 ce be b4 34 6c be
       -0.09668671 -0.11883425 -0.40384185 -0.2306698
000380 2c 58 f6 bd be 31 a0 bc 73 38 07 3e 15 31 71 bb
       -0.12028536 -0.019554969 0.13205127 -0.0036802937
000390 ac b0 de bd da 95 0c be 7a 32 74 bd 23 09 15 be
       -0.10873541 -0.13729039 -0.05961845 -0.14554267
0003a0 97 de d1 bd ba 1e 6a 3e 48 6b f0 b8 39 47 89 bd
       -0.10247534 0.22863284 -0.000114640745 -0.06703038
0003b0 54 84 be bd 66 8c 1d be 7f 0e 67 be 55 6c db bd
       -0.09302583 -0.15385589 -0.22564124 -0.10714022
0003c0 13 f5 91 3c 80 50 0a bd 9d d4 22 3e b8 cb 2f be
       0.017817056 -0.033768177 0.15901418 -0.17167556
0003d0 3a 6b 38 bd 55 63 8b 3e fc 39 5e be 63 9c d2 3b
       -0.045024134 0.27224222 -0.21701807 0.006427334
0003e0 b8 4f 82 3d 79 27 b3 bc 2a 2a 2b bb 1b 04 1a 3d
       0.063628614 -0.021869408 -0.002611766 0.03760157
0003f0 bd 01 53 3c b5 6a 37 be 3d 2e a0 bd 58 e5 1a be
       0.012878832 -0.17911799 -0.07821319 -0.1512655

weight_hh_l0 f4 [256, 64]
000000 d1 e5 79 bd 37 73 58 3e 1c 87 d7 3c f2 ea 72 be
       -0.061010186 0.21137701 0.026309542 -0.23722437
000010 df bb 84 be e6 ef 34 3d 9b a1 24 3d 6f 7d 49 be
       -0.25924584 0.044174097 0.04019318 -0.19676755
000020 8b ed 25 3c 23 9a f2 bb fa bf 0a 3d 51 ac 11 3e
       0.010127435 -0.0074036284 0.03387449 0.1422589
000030 6a 22 7d bd 7e 55 2d 3e 72 21 91 be 04 1e 34 be
       -0.061800398 0.16927144 -0.2834583 -0.17589575
000040 be ca c1 bc 6d 47 b5 3b 0b 07 8f 3c 92 80 d9 3d
       -0.023656245 0.0055321963 0.017459413 0.10620226
000050 92 8d e5 bd 40 0c bf 3e f4 3f 70 3e 0e 49 07 3e
       -0.11208643 0.37314034 0.23461896 0.13211462
000060 8c fc 86 3d f0 d3 b7 be df f4 1d be 7d 38 11 3e
       0.06591138 -0.35903883 -0.15425442 0.14181705
000070 ab 43 2d 3e 13 28 42 be 21 b0 06 be cf 0d 1b be
       0.16920345 -0.189606 -0.13153125 -0.15141986
000080 4d bd 3f 3e 6c 19 f1 3d d9 37 62 bc 50 ec 21 3c
       0.18724556 0.11772427 -0.01380726 0.009883001
000090 6b 37 10 be 9e 14 19 3e 9d 02 51 3e 78 38 c9 bd
       -0.1408364 0.14949271 0.20411153 -0.09825224
0000a0 16 b1 40 3e 7a 92 41 3e f4 85 44 bb ba b1 2a 3e
       0.18817553 0.18903533 -0.002998707 0.1666936
0000b0 e5 fd 53 bd 5c d6 84 be be 9e c7 3d 5e 35 7c 3a
       -0.051755805 -0.25944793 0.097470745 0.00096209894
0000c0 c6 9a d9 bc 3f f2 69 3e 29 f4 5b bd d4 54 6d be
       -0.02656306 0.22846316 -0.053699646 -0.2317689
0000d0 25 17 81 3c 41 23 60 bd b5 7a 22 be 52 43 ee bd
       0.015758106 -0.05472112 -0.15867122 -0.11633934
0000e0 db d7 b5 bd c3 89 64 be 27 97 0f be 68 ae 2d 3e
       -0.08879062 -0.22318177 -0.14022504 0.16961062
0000f0 86 3f d8 bd 17 62 4d 3e 83 95 b0 3d b6 db 01 be
       -0.10558991 0.2005695 0.08622267 -0.1268147
000100 5f 05 4f 3d 8a 91 29 be 1c af ff 3c 8b 60 0b bd
       0.05054223 -0.16559425 0.031211428 -0.034027617
000110 c9 5f b6 3d fb f5 76 3d e8 3a fd 3b d9 36 df bd
       0.08904988 0.06029318 0.0077279694 -0.10899133
000120 b4 d9 e4 3d a2 be ed 3c 5e c6 65 3a 7c bc 80 bd
       0.11174336 0.029021565 0.0008765216 -0.062859505
000130 1e 06 59 bd 7d c3 08 be a7 f2 06 3e 3b 71 27 3d
       -0.05298435 -0.13355823 0.13178502 0.04087947
000140 7c 81 ee 3c 08 94 5a be a7 82 ae 3c e4 e5 8e bd
       0.029114477 -0.21345532 0.021302534 -0.06977442
000150 a2 16 25 3e 76 4b 35 bd 41 bf 0c bd c0 58 34 be
       0.16121915 -0.04426142 -0.03436208 -0.1761198
000160 57 d9 0d be 36 5d b7 bd fa c4 70 be ff 78 bf bd
       -0.1385244 -0.089533255 -0.2351264 -0.0934925
000170 2d 8e b5 bd 1e bf b4 bd f6 60 59 be e6 9c 95 bd
       -0.088650085 -0.08825515 -0.21228394 -0.073053166
000180 1d a3 4c 3a c0 ed 3f bc 12 e9 08 3e 6a f5 7c 3d
       0.0007806288 -0.011714399 0.1337016 0.061757483
000190 0b 3e dc 3b ab f0 3f bd 67 5e 9b 3c 23 fc fa 3c
       0.0067212633 -0.04686038 0.018965913 0.030637806
0001a0 5b a0 4b bd 34 2d 01 be d3 85 24 3e 2f 99 68 3e
       -0.049713474 -0.126149 0.16066675 0.22714685
0001b0 56 45 47 3d 45 29 e4 bd d4 9c cd 3c f8 d5 2a 3d
       0.04865011 -0.11140684 0.025099196 0.041707963
0001c0 c4 a3 3a 3c b5 48 0b bd da f1 ad 3d 41 8a 86 3c
       0.011391584 -0.034004886 0.08493395 0.016423346
0001d0 d4 71 e0 bd 80 7f b0 bc 04 6d bf bc 58 b9 f0 3d
       -0.10959211 -0.021545172 -0.023367412 0.117541015
0001e0 84 12 e1 bd 63 20 cb 3c 1b b2 b5 bc 30 84 df 3c
       -0.1098986 0.024795717 -0.022179654 0.027284712
0001f0 61 54 e0 bd 0b 63 a1 bd 5f 1c d4 bc e2 a0 7b 3e
       -0.10953594 -0.07880219 -0.025892435 0.2457309
000200 c9 02 3f 3e 9e 3a 96 be 37 c4 ef bc 0a c0 47 be
       0.18653406 -0.29341596 -0.029268367 -0.19506851
000210 5c 6a 6a 3c ea 5d 03 3e 2e 4c 2f be 41 36 f5 bc
       0.014307585 0.12828794 -0.17118904 -0.029933097
000220 ba fd 6e be be 26 51 3e f0 ff f2 3a cd 0d ac 3d
       -0.23338977 0.20424935 0.001853941 0.0840107
000230 7d 69 34 be 18 a4 cd bd 54 28 1b bd e1 e7 05 3e
       -0.17618366 -0.10041064 -0.037880257 0.13076736
000240 e4 fc 0b 3e a5 65 86 3e 60 10 66 3c d3 0d ee bc
       0.13670689 0.26249424 0.01404199 -0.029059326
000250 a1 5d 1e 3e 4c 1e 43 bd da b8 c9 bd df 1a 80 bd
       0.15465404 -0.047636315 -0.09849711 -0.06255125
000260 73 d3 c1 bd c2 b5 c1 3e 6b 0a bd bd 0b 06 d6 3e
       -0.09464159 0.37833983 -0.09230503 0.41801485
000270 02 a2 e7 bc 46 61 9c bd 88 4f 73 be a5 22 16 3e
       -0.028275494 -0.07635741 -0.23760808 0.14661653
000280 2a d4 2a 3d b6 e2 c1 3c 2d d1 2c be b2 c3 aa bd
       0.04170624 0.023667675 -0.16876669 -0.08338107
000290 44 04 7a 3c b3 ff 89 3e ba 01 eb 3d 18 fc 50 bd
       0.015259806 0.26952896 0.11474939 -0.051021665
0002a0 c0 cc 3a 3d bb 21 ea 3d 59 81 07 bd a4 93 5c 3d
       0.04560542 0.11432215 -0.03308234 0.05385174
0002b0 aa e1 63 be 67 52 eb bd 86 fb 17 be 9d 47 de 3c
       -0.22254053 -0.114903264 -0.14842042 0.027133757
0002c0 59 d8 af be fc f0 e0 3d ce 0c 46 3e d8 ac 52 3e
       -0.34344748 0.10983464 0.19340822 0.20573747
0002d0 e4 9e 62 3d e3 9d 3e 3d 7a 7d 89 bd 30 ba 04 be
       0.05532731 0.04653729 -0.06713386 -0.1296165
0002e0 b6 47 52 3e 54 9c 39 3e d9 7d 73 3d 1a f1 34 bd
       0.20535168 0.1812604 0.05944619 -0.044175245
0002f0 66 4a 0e 3e 2f 50 3a be 25 62 78 bc 8a 0a 55 3e
       0.13895568 -0.1819465 -0.015160118 0.20804802
000300 89 2f 0f 3d 3d 26 78 bc 07 17 06 be 1b 4f 2c be
       0.034957442 -0.0151458355 -0.13094722 -0.16827051
000310 23 ec 3a bd b3 f4 a4 3d 04 0e c3 3d 7f 26 0a bd
       -0.045635354 0.08054485 0.09524158 -0.03372812
000320 d2 5d d4 3d 07 53 7a be 33 71 ba bd f0 f0 95 bd
       0.10369457 -0.24445735 -0.09103622 -0.07321346
000330 b7 b7 89 3d d4 8f 6b 3e 31 21 6b bc 46 ee dc 3d
       0.06724494 0.23004085 -0.014351175 0.107876346
000340 ad 1b a2 bd 95 5a b0 3d 7c 9c 25 3e eb d0 a9 3d
       -0.07915435 0.08611027 0.16172975 0.08291801
000350 af fe 05 be 42 0a bd 3d 1a 26 71 bd f9 80 77 3d
       -0.13085435 0.09230472 -0.058874227 0.060425732
000360 0d 0e 15 3d 2f 30 1c be df a0 de 3d 6c 4a a2 3d
       0.036390353 -0.15252756 0.108705275 0.07924351
000370 15 d4 db bd f5 17 9c 39 5e 0a 33 3e b2 2e 6d be
       -0.10733811 0.00029772488 0.17484424 -0.23162344
000380 5b a4 10 3e de 7b 09 3d f2 3f ff 3d bf d2 34 be
       0.14125197 0.033565395 0.124633685 -0.17658518
000390 6b bc 2b be 71 de 8e bc 31 9c 16 3d 08 95 f8 bd
       -0.16771095 -0.017440053 0.03677005 -0.121378005
0003a0 d1 0e 10 3d 03 8e d3 bc fe b7 fb 3d c0 02 29 3d
       0.03517038 -0.025824552 0.12290953 0.04126239
0003b0 8f f1 68 3e 4c bc 24 be e5 8e 0f be 30 1f 7f bd
       0.22748397 -0.16087455 -0.14019354 -0.062285602
0003c0 22 26 76 3e 1d 03 b0 bd 74 c5 85 be 60 fe 4c bc
       0.24037984 -0.08594344 -0.26127207 -0.01251182
0003d0 8c f4 98 3d 5c 81 7f bd 4a b3 0f 3e ef e9 8a 3d
       0.074685186 -0.062379226 0.14033237 0.067829005
0003e0 d9 39 70 3d dc b8 8a bd a9 66 1f be 86 a5 32 3d
       0.058648918 -0.067735404 -0.15566505 0.043614887
0003f0 32 6b ef bc a1 26 b6 bc 10 64 00 bd 81 4c 7f bd
       -0.02922592 -0.022235217 -0.031345427 -0.06232882

bias_ih_l0 f4 [256]
000000 96 f4 60 be 33 b1 cd 3d eb 19 53 be ab 35 82 bc
       -0.21968302 0.10043564 -0.20615356 -0.015894732
000010 68 9c a1 be 4a 34 cc bd 42 5f ce bd 46 8e ff bc
       -0.3156464 -0.09970911 -0.10076763 -0.031195771
000020 10 ae b5 bd c0 04 4d be 82 1d 36 bd f7 9e 2e be
       -0.088710904 -0.20021343 -0.044461735 -0.17052828
000030 44 fe bf bd 13 24 79 be f2 6e 4a bd 6f ac 02 3e
       -0.09374669 -0.24330167 -0.049422212 0.1276109
000040 32 e6 c2 bd 38 d3 0b be 31 17 1d 3e 2e 69 5a be
       -0.095165625 -0.13654792 0.15340878 -0.21329185
000050 bb 51 1f be ef 4a 87 3c 28 36 2d be 23 9d 09 be
       -0.15558521 0.016515223 -0.1691519 -0.13438849
000060 9b 88 d9 bd 7f 5f f6 bd aa de 45 be 1c 75 7e 3d
       -0.106217586 -0.12029933 -0.19323221 0.062123403
000070 5b ed 33 be 14 ec 71 3d 39 ac eb 3c 61 92 e6 bd
       -0.17571013 0.059063032 0.028768646 -0.11258388
000080 55 9b d3 bd 63 ba 8c 3d a4 48 4e be ce 48 b5 bd
       -0.103323616 0.06871488 -0.20144898 -0.08851777
000090 94 38 7b be 24 2e ea bd 74 37 06 bd 8a 43 5d bd
       -0.24533302 -0.11434582 -0.032767728 -0.05401949
0000a0 20 76 2d be 65 25 82 3c 5f e4 21 be 13 69 91 3c
       -0.16939592 0.015886972 -0.15809773 0.017750299
0000b0 57 48 9b bd 9a b1 19 3d ac be 9b bd 3a 3c 8d be
       -0.07582157 0.03752289 -0.07604727 -0.27585012
0000c0 aa 41 ac bd 81 aa 93 bd f8 55 31 bc de e1 84 be
       -0.08410962 -0.072102554 -0.010823719 -0.25953573
0000d0 37 5e d0 bd b6 30 8b be 9b f2 52 be 80 35 80 be
       -0.1017422 -0.271856 -0.20600359 -0.25040817
0000e0 72 b4 a7 be 54 9e 7d bd be 1b 91 be 04 33 e7 bc
       -0.32754856 -0.06191857 -0.28341478 -0.028222568
0000f0 9a be 88 bd df 23 f8 bd 4d 67 29 bd b0 38 d7 bd
       -0.06676979 -0.12116217 -0.04135828 -0.10508859
000100 5c 87 4e 3d 6d 17 8d 3d b2 0a 73 3d c5 f0 51 be
       0.050422058 0.06889234 0.05933637 -0.20502003
000110 69 e8 a7 bd e5 8f 50 bd 2d 54 8a 3e 2d a7 31 be
       -0.081986256 -0.05091848 0.27017346 -0.17348929
000120 a6 ab 42 be 79 9c 96 be 79 5c a6 bd 63 6b 08 be
       -0.19010791 -0.29416254 -0.081231065 -0.13322215
000130 cd d5 e7 bd b1 33 5b bd bb 20 e3 bc 37 f9 1e 3d
       -0.11320076 -0.053516094 -0.027725568 0.03881189
000140 c2 39 0d be 5c 9c fd 3b d0 6d 05 bd fd 15 0d be
       -0.13791564 0.0077395868 -0.03257543 -0.13777919
000150 1a ca ed 3d ff ca 13 be 34 4c 3f bd 5d 5b 6c bd
       0.116108134 -0.14432906 -0.046703532 -0.05770432
000160 86 e9 ee bd f9 d5 47 be aa 98 75 be 63 96 87 3e
       -0.11665635 -0.19515218 -0.23984018 0.26481923
000170 6b 78 a2 bc bc ad a3 bc e2 20 a9 bd 57 e7 24 be
       -0.01983281 -0.019980304 -0.08258225 -0.16103874
000180 72 8a 14 3e c1 f1 b2 3c be 54 03 be 0f c9 1f be
       0.14505938 0.021843793 -0.12825295 -0.15604042
000190 b1 94 6a 3d af 85 95 3e 7e 6c 75 3c 1b a6 74 bd
       0.05727071 0.29203555 0.01497948 -0.059728723
0001a0 79 58 e9 bd d0 b1 1c 3e 6f 72 d2 bc f4 b8 ba bc
       -0.11393828 0.15302205 -0.025689332 -0.02279327
0001b0 0f f5 45 bd eb e9 12 bc 24 80 1d be 76 39 18 bc
       -0.04832941 -0.008966903 -0.15380913 -0.0092910435
0001c0 b6 47 6c 3c 9c aa 2e 3d 2d a7 0e be 33 01 37 bc
       0.014421394 0.042643175 -0.1393096 -0.0111697195
0001d0 8f 37 fa 3b f3 5f 1a 3d bc d2 10 be f7 a8 b4 3d
       0.0076360176 0.03768916 -0.14142889 0.0882129
0001e0 fa d5 a0 be a8 01 06 bd 07 e5 51 be 2a c9 c3 3d
       -0.3141325 -0.032716423 -0.20497523 0.095598534
0001f0 49 89 37 3d 9e 07 46 be c9 28 a3 bd 9e 49 c7 bd
       0.04480866 -0.19338843 -0.079667635 -0.09730838
000200 e9 21 08 be e2 4e 05 be 8a 10 ba 3d 80 ac 53 bd
       -0.13294186 -0.13018373 0.09085186 -0.05167818
000210 de 56 58 3d 2d ca 58 bd c5 b2 e6 bc a3 78 37 bd
       0.052817218 -0.052927185 -0.028161416 -0.044792783
000220 fd 85 ca bd 7e 52 12 3d 4a ab b3 bd 05 8c 48 3c
       -0.098888375 0.035723202 -0.08772905 0.0122404145
000230 e6 74 db bd 5e ba 63 bd 09 ea a6 bd 4a db 0c be
       -0.10715656 -0.055597655 -0.081501074 -0.13755527
000240 80 34 80 3d 32 0d 98 bd e0 a6 ae 3d 9a a6 9d 3d
       0.062600136 -0.07424392 0.08527923 0.07697792
000250 bc 93 f6 3d d5 14 c2 bd 0d 10 b2 3d b9 2f 07 3d
       0.12039897 -0.0947663 0.08694468 0.033004496
000260 e5 a8 cd 3d 32 25 08 3c 5c 58 e1 bd 87 f9 9b bc
       0.1004198 0.008309649 -0.11003181 -0.019039882
000270 ec dd d5 3c 54 a8 c6 3c 34 62 ce bd 92 94 1e 3e
       0.026106797 0.024250187 -0.100773245 0.15486363
000280 65 9b 70 3d d8 ac 0a 3d f3 9a 97 bc 7a c2 f5 3d
       0.058741946 0.033856243 -0.018506503 0.11999984
000290 a4 e0 92 3d 68 d1 a8 3d 66 d1 d5 3d 18 e2 9b 3a
       0.07171753 0.08243066 0.1044033 0.0011892943
0002a0 aa c1 3b 3d fc 88 31 3d f3 62 1f bd 09 e6 bf 3c
       0.04583899 0.04334353 -0.038912725 0.023425119
0002b0 1c 2c 5b bd 2a 78 1b 3c f3 a0 3b bd 18 62 91 3d
       -0.053508863 0.009489099 -0.04580779 0.07098788
0002c0 b0 b8 9b bd 16 23 19 3e 22 b7 5e 3d b8 66 d0 3d
       -0.07603586 0.1495479 0.054373868 0.10175842
0002d0 3c 58 28 bd e5 fc d1 3d b6 9d ed bd 36 fb 8c bd
       -0.04109977 0.10253314 -0.116023466 -0.06883852
0002e0 dc 54 2c bd 6f 1f e4 bc fa af 2a 3e 4f 73 ad 3d
       -0.042073116 -0.02784702 0.16668692 0.08469259
0002f0 26 cf 25 3c 86 4e 97 3d 46 99 07 bc 84 fb a0 3c
       0.010120189 0.07388024 -0.008276289 0.019651182
000300 e8 5e 18 be 08 2f b8 3d 0f ea b4 bd 13 4f 9e bc
       -0.14879954 0.089933455 -0.08833706 -0.019324815
000310 ff fc 3c be d5 55 15 bd b4 cd be bd 21 5f 59 be
       -0.18455885 -0.03645881 -0.093165785 -0.21227695
000320 75 7e 39 be 19 c1 8d be e4 c5 2f 3c 26 d8 0f be
       -0.18114646 -0.27686384 0.010728333 -0.14047298
000330 72 6c ed bd c7 67 1a 3b 1f d3 07 be 48 00 c3 3d
       -0.1159295 0.0023560391 -0.1326413 0.09521538
000340 60 1f bc bc 88 25 5e be c9 e3 a0 3e 16 39 2a be
       -0.02296418 -0.21694005 0.31423786 -0.16623339
000350 64 dc 31 bd 56 71 06 be 6d dc 82 bc 2b 49 48 be
       -0.04342307 -0.13129172 -0.015974248 -0.19559161
000360 58 e3 b5 bd a8 d3 6a be 07 74 d7 be 35 46 f4 bd
       -0.08881253 -0.22932303 -0.4208071 -0.119274534
000370 a6 b5 17 be de fc 47 bd e7 ae 91 3d 54 b1 0d bd
       -0.14815387 -0.048825137 0.07113438 -0.03459294
000380 9a ee 11 be 1d d1 5a 3d 1f d1 98 bd 0f 6a 18 be
       -0.14251176 0.053422082 -0.07461762 -0.14884208
000390 23 ce dc bd e1 76 73 bd 06 04 47 3d 97 73 32 be
       -0.10781505 -0.059439544 0.04858782 -0.17426907
0003a0 b2 52 3f 3d 14 9e 73 bd 7b 9c 9a bd 48 6b f3 3c
       0.046709724 -0.059476927 -0.075493775 0.029714242
0003b0 b0 30 e3 bd 7c 3b d3 bc 00 16 59 3a 18 26 6c be
       -0.11093271 -0.0257852 0.00082811713 -0.23061407
0003c0 3c d4 7a be 24 ee a2 bd 03 9a 1d be d5 d6 d4 bc
       -0.24495023 -0.07955578 -0.15390782 -0.025981346
0003d0 2c 58 f0 bc 9a 4c 16 be da 76 dd bd 86 86 e0 bd
       -0.029338919 -0.14677659 -0.10813685 -0.10963158
0003e0 2f 70 af be e9 46 99 3c f0 09 4f be 03 46 b6 bd
       -0.34265277 0.01871057 -0.20218635 -0.089000724
0003f0 b5 f3 db bb 62 e7 19 3d ac e0 e7 3d 46 e7 0f 3c
       -0.0067124018 0.03757418 0.1132215 0.008783167

bias_hh_l0 f4 [256]
000000 fc 63 38 be e5 08 b1 bd 05 f1 96 bd 6d 68 3d be
       -0.18006891 -0.086442746 -0.073701896 -0.18496867
000010 8b 34 20 be 27 e0 30 be 3a bf da bd 0d bc 05 bd
       -0.15645044 -0.17273007 -0.10681005 -0.032650042
000020 4e f0 bf bd 3f 3a 85 be eb ec 55 3c 12 ea 7b 3d
       -0.09372006 -0.26021 0.013056974 0.061502524
000030 2d 9a fa bd 16 70 eb bd 29 35 a8 bd da 34 12 3e
       -0.12236438 -0.11495988 -0.082132645 0.14277974
000040 5a 64 88 be 4f 6a 8f be 82 6c 2c 3d 24 d3 74 be
       -0.26639062 -0.28010795 0.04209567 -0.23908669
000050 a9 78 1c be d4 bc b6 bb eb 36 9f bd a8 1f 10 be
       -0.15280403 -0.0055767093 -0.07774147 -0.14074576
000060 30 39 25 be 24 26 14 be b6 19 af be 66 aa 32 bd
       -0.16135097 -0.14467674 -0.34199303 -0.043619536
000070 0c 00 cb bd f2 8b 0a 3e e2 90 02 be 1e b6 33 be
       -0.09912118 0.13529947 -0.12750581 -0.17549941
000080 fd bc 1c 3d c8 7e 2b bd 7c aa 6c be 3c 22 14 be
       0.03826617 -0.041868955 -0.2311191 -0.14466184
000090 98 2a 0b be 0f a1 7a bd 05 b0 45 be f4 ac c5 bb
       -0.13590467 -0.061188754 -0.19305427 -0.0060325805
0000a0 66 86 1d be ac f7 ac bd 97 f4 80 bd 5c 22 17 be
       -0.153833 -0.08445677 -0.06296652 -0.14759201
0000b0 75 6e ff 3b c9 be a3 bd 9d ff 02 bd 62 5c 14 be
       0.00779515 -0.07995374 -0.031982053 -0.14488366
0000c0 64 89 b4 bd 7e e1 03 bd 0b 7b 21 be c3 b1 75 be
       -0.08815268 -0.032197468 -0.15769593 -0.23993592
0000d0 ed e2 03 bd 1e 67 0f be ad fe 4e be 05 31 98 bd
       -0.032198835 -0.1400418 -0.20214339 -0.07431225
0000e0 5d fd 6f be ed 31 66 be 95 49 1d be ce a6 de bd
       -0.23436494 -0.22479983 -0.153601 -0.10871659
0000f0 8c d9 37 be 7f ba e4 bd f2 27 0c 3d 72 83 d8 bd
       -0.17954081 -0.11168384 0.034217782 -0.10571946
000100 e2 ba f2 3d 2f ab 3d 3e 40 dd ab 3b e7 ec c7 bc
       0.11852051 0.18522333 0.005244881 -0.024404956
000110 cd 08 89 bd 5e a4 c8 3a 8f bf 51 3e 53 01 84 be
       -0.06691132 0.0015307774 0.2048323 -0.2578226
000120 04 9c ca bd 66 72 75 be fd 38 f1 bd 4d 8f 9a bd
       -0.09893039 -0.23969421 -0.11778448 -0.07546864
000130 07 e7 b1 bd c0 2d b7 bd 7d c6 d6 3d 82 a3 a9 bd
       -0.08686643 -0.08944273 0.104870774 -0.0828314
000140 6e 5b 2b be 42 f9 e6 3c c5 e5 74 3d cf d3 8b 3d
       -0.16734096 0.028195027 0.059789438 0.06827509
000150 f6 9e f0 3d 5d 74 33 3c de c9 64 bd 40 a0 5f bd
       0.117490694 0.010953036 -0.055856578 -0.054596186
000160 55 df 58 be ec a9 a6 be 31 5a b5 bd d9 6e b1 3e
       -0.21178944 -0.32551515 -0.08855093 0.34654883
000170 fc 43 b1 bd 28 9d 85 bc c2 35 78 be e5 82 f7 bd
       -0.08655545 -0.01631029 -0.24239257 -0.12085513
000180 27 e6 b1 3d 08 85 77 bd e8 ee 31 be e2 1c 86 bd
       0.08686476 -0.060429603 -0.17376292 -0.06548478
000190 49 01 c6 bd 1c fb 1e 3e e7 43 99 bd 6f 80 c1 bd
       -0.09668214 0.15525478 -0.074836545 -0.09448325
0001a0 00 39 4b bd 8e 0b 5b 3e 11 f7 13 3c 00 3f 52 be
       -0.049614906 0.21391127 0.009031073 -0.20531845
0001b0 af 5c b6 3d d4 32 7f bd 9e 4a 9d bd d7 84 63 3d
       0.08904397 -0.062304333 -0.07680248 0.055546608
0001c0 a5 7a c5 bd fd 3e 17 bd c1 e5 9c bd 57 d7 e8 bd
       -0.09642533 -0.036925305 -0.076610096 -0.11369198
0001d0 5e 25 07 be 8f e6 db 3c 4f ef c9 bd f1 e8 6a 3c
       -0.13197848 0.026843337 -0.098600976 0.014337764
0001e0 72 1a 76 be 6a 7c 30 bd 1f af c2 bd 9c d4 6a 3e
       -0.24033526 -0.0430874 -0.09506058 0.22932667
0001f0 79 e0 c3 bd 15 5a ca bc b4 c3 4b bd 32 78 85 be
       -0.09564299 -0.024701158 -0.049747184 -0.26068264
000200 22 af 82 bd 01 f0 12 3d 17 e3 0a 3e 52 b4 9b 3c
       -0.0638106 0.035873417 0.1356319 0.019006882
000210 58 16 a1 3d 38 0c d1 39 e8 8a 20 be b9 a1 94 bd
       0.0786559 0.0003987269 -0.15677989 -0.07257409
000220 c8 0e 83 bd 50 60 81 3c 18 6f c4 bd af b6 24 bd
       -0.06399304 0.015792996 -0.09591502 -0.040213283
000230 2b 6b c4 3c a6 d6 70 3c 80 5d d9 bc 68 a6 36 3c
       0.023976883 0.014699614 -0.026533842 0.011148073
000240 75 7a 59 3d 22 f5 ec bd 0f 33 a0 3b 3a 45 9d bd
       0.0530953 -0.11570193 0.004888899 -0.076792195
000250 58 4d a7 3d f1 98 c2 3d 74 a2 c3 3c 11 67 7d 3d
       0.08169049 0.095018275 0.023881175 0.06186587
000260 c5 35 9b 3d e4 e6 bc 3d 59 87 c8 3c 96 6d 05 3e
       0.07578615 0.092237264 0.024478601 0.13030085
000270 4b 79 0d 3d c9 5d 32 3d 69 a5 bb bc 61 58 4e 3d
       0.034539502 0.04354647 -0.022906022 0.050377253
000280 69 d6 19 3d 3f bc 4c 3c fa e5 6e bd 83 27 d9 3c
       0.037557993 0.012496053 -0.05832479 0.026508098
000290 56 4a dd bd 39 21 3f bb 83 97 60 3c 26 da e4 3c
       -0.10805194 -0.002916409 0.013707998 0.027936053
0002a0 6b b4 a0 bc ed 22 0b 3e 5d fc 12 be ab e4 fa 3d
       -0.01961728 0.13587542 -0.14354081 0.12250646
0002b0 9b b0 9a bd 19 d1 c6 bd 5f 51 58 bd df 32 4b 3d
       -0.07553216 -0.09707851 -0.052811977 0.04960906
0002c0 05 59 cb bb 60 8e 0a bd 50 ce e1 3d 8c 95 0d 3d
       -0.0062056803 -0.033827186 0.11025679 0.034566447
0002d0 cb 4b 17 3e c7 c0 4e bd e2 b3 ed bc 96 cb 7c 3c
       0.14775006 -0.050476816 -0.029016439 0.015429398
0002e0 ce fc 4d bd c5 21 03 3e 20 ef 30 bd e1 0f 0a bd
       -0.05028992 0.12805851 -0.043196797 -0.03370655
0002f0 04 51 fb 3c cd e0 47 3d 16 7e 09 be b2 9c 05 3e
       0.03067828 0.04879837 -0.13427004 0.13048056
000300 7c 82 6a 3d 13 b2 84 3c 4c 72 62 bd 48 4b 6f bd
       0.057253346 0.016198194 -0.055284783 -0.058421403
000310 c7 6b 6a be 9b 28 c6 bd d8 4b da bd 6f 2f 22 bc
       -0.22892676 -0.09675714 -0.10658997 -0.009899004
000320 9b 24 88 bd 32 04 42 be fa b5 59 bd 76 5e 8e bd
       -0.06647607 -0.18946913 -0.053152062 -0.06951611
000330 44 63 8e 3d f9 b8 08 be 88 cc bb bd 91 cc 7b bc
       0.06952527 -0.13351811 -0.091698706 -0.015368597
000340 eb 94 2f be 2f 58 84 be 49 e8 93 3e 66 f8 ff bd
       -0.17146651 -0.2584853 0.28888157 -0.1249855
000350 0c 0c e6 bd 68 22 4e 3d f1 3f b7 3c ad 2e 17 be
       -0.112327665 0.05032578 0.022369357 -0.14763899
000360 a9 8c 70 be 38 ab 15 be 4b 76 4c be 07 14 b7 3d
       -0.23491158 -0.14616096 -0.19967 0.08939367
000370 ca 9a b6 bd ef 92 8b 3d 55 50 46 3b 3d cb 86 be
       -0.089162424 0.06815135 0.0030260284 -0.26326934
000380 d3 f4 13 be f8 3d c5 bd d9 09 68 3d b3 94 9d 3d
       -0.14448862 -0.0963096 0.056650016 0.07694378
000390 95 31 f0 bd d4 5a ae bd a4 16 2e be d8 e9 10 3d
       -0.11728207 -0.08513418 -0.17000824 0.03537926
0003a0 35 7d 21 be 2f 04 61 bc d1 d8 60 be 4f a2 3c bd
       -0.15770419 -0.013733908 -0.21957709 -0.046053227
0003b0 64 76 65 be d2 f4 fe bc d2 8c 85 bd 2a 7f 1f be
       -0.22408444 -0.031122599 -0.06521 -0.15575853
0003c0 dd 24 2a be 44 7b e6 bd 13 bf a6 bc 99 dd fa bc
       -0.16615625 -0.1125398 -0.020354783 -0.030623244
0003d0 a6 c0 82 3d e7 55 9e be 82 cd f9 bd 8e 2a d2 bd
       0.06384401 -0.30924913 -0.12197401 -0.10262023
0003e0 31 89 c2 be c6 52 e3 bd 19 bb d8 bd a8 a0 7c 3c
       -0.37995294 -0.11099772 -0.10582561 0.015419163
0003f0 46 48 83 bd 40 3f 22 be 78 83 25 3e 51 40 e6 bc
       -0.064102694 -0.1584444 0.16163433 -0.02810684

weight_ih_l0 f4 [128, 64]
000000 38 d5 8e 3e b8 02 02 bd 62 1a 80 be c5 d5 6f bc
       0.27897048 -0.031740874 -0.25020128 -0.014638369
000010 f1 7c 8d 3b f9 1e 86 3e 02 50 e1 3d 06 ec ae bd
       0.0043178727 0.26195505 0.110015884 -0.08541112
000020 ef 06 64 bd 6d 26 ee bd 34 8e 55 bc 02 38 2b 3e
       -0.055670675 -0.11628423 -0.013034392 0.16720584
000030 0b bf de bc b3 eb 19 bd 17 8d cf bd f9 01 65 bc
       -0.027190706 -0.037578296 -0.101343326 -0.013977521
000040 13 95 b6 bc 4c dc c9 3c b8 02 2f 3d 04 be bc 3d
       -0.022287881 0.024641179 0.042727202 0.0921593
000050 3c 49 df 3d bb 65 80 3e f2 2b 34 bc 36 7d 7b be
       0.1090264 0.25077614 -0.0109968055 -0.24559483
000060 79 fb cf 3d cc 18 5d be f3 cc 3e 3e ef 74 c8 bd
       0.101553865 -0.2159149 0.1863287 -0.09787928
000070 07 06 0a 3c ef aa 29 3e 82 74 43 3e f6 33 bf bc
       0.008424289 0.16569112 0.19087413 -0.023340207
000080 37 eb 09 be c1 ed 49 bd 77 6a 1b 3d e8 5d 61 be
       -0.13468634 -0.049299005 0.03794333 -0.22008479
000090 03 a5 5c 3d 89 10 c1 3d bc 7f f9 ba 03 03 16 be
       0.053868305 0.09426982 -0.001903526 -0.14649586
0000a0 08 a8 30 3e 83 0b d2 bd 3a e6 60 3c 23 a2 39 be
       0.17251599 -0.10256102 0.013726765 -0.18128256
0000b0 8f e6 8b bb e0 1b a4 bc a1 9e a1 3d bd 65 d5 bd
       -0.004269428 -0.020032823 0.07891584 -0.10419796
0000c0 84 12 da 3d fb f0 82 3d ce ff e9 bd fa 97 e5 bd
       0.10648063 0.063936196 -0.11425744 -0.11210628
0000d0 a2 05 3a bc 43 5b c5 3d 48 64 68 3d 8c 16 91 3c
       -0.011353882 0.096365474 0.05673626 0.017710947
0000e0 41 66 0a 3e 59 5d cc bd ad 7b d1 3b 86 b8 ab bd
       0.1351557 -0.09978742 0.006392917 -0.083848044
0000f0 19 74 47 3d c1 d5 ab bd c3 b9 71 bd ab 6e 02 be
       0.048694704 -0.0839038 -0.059015047 -0.12737529
000100 d1 47 7c 3d a2 7c 84 bb 04 48 14 be 86 e7 18 be
       0.061591927 -0.0040431777 -0.14480597 -0.14932069
000110 bf f7 8c be 84 75 02 be 7f 25 62 3e bf d9 21 3e
       -0.27532765 -0.12740141 0.22084616 0.1580572
000120 e6 3f e1 3d be 84 02 3e fd 06 2f be f7 e0 cc ba
       0.10998516 0.1274595 -0.1709251 -0.001563101
000130 ed f1 8c bd 7e c2 cf bd 1b b0 c8 be e3 4a c8 bd
       -0.06882081 -0.10144518 -0.39196858 -0.097799085
000140 14 09 32 3d b3 bf ea 3c ea 40 5c 3e 52 95 53 3e
       0.04346569 0.028655862 0.21509138 0.2066243
000150 9f a1 94 bd 2b 52 ab 3e 21 43 8b 3e b1 8d 2a be
       -0.07257389 0.33461127 0.27199653 -0.16655613
000160 89 e4 ba bd 2b 54 c0 bd f1 c1 b5 bd 2a aa b3 3e
       -0.09125621 -0.09391054 -0.08874882 0.35090762
000170 73 06 a5 3d be 24 0a be 82 79 21 bc 14 4b ef bd
       0.08057871 -0.13490579 -0.00985563 -0.11684242
000180 7f 52 d6 bd 31 44 68 3e 8f 48 39 3e 2e ce 67 be
       -0.10464954 0.22682263 0.18094085 -0.22637245
000190 54 2c 89 be af 02 aa 3e e8 5c c8 3e 3c f1 31 3d
       -0.26791632 0.33205172 0.39133382 0.04344295
0001a0 a4 bb 12 3d 0e e0 8e 3e 79 1f 1c 3d ed ad 86 bd
       0.03582348 0.27905315 0.038115952 -0.065761425
0001b0 20 83 59 3d 74 1a c8 be e3 c3 04 3e f2 48 f5 3c
       0.053103566 -0.39082682 0.1296535 0.02994201
0001c0 99 8c 15 3e 78 cd c0 3e e5 54 dd 3b 31 70 19 be
       0.14604415 0.3765676 0.006754505 -0.14984204
0001d0 6b 88 5a 3e 04 37 93 bd a9 61 0a 3c 91 04 3d be
       0.21341102 -0.07188228 0.008446136 -0.18458773
0001e0 8c d3 bf bd 1b 43 d9 3d fc e1 04 be 88 92 90 3e
       -0.09366521 0.106085025 -0.12976831 0.28236794
0001f0 62 3f ed bd d0 25 3d 3d 94 e3 fc 3d a6 77 52 be
       -0.11584355 0.04617864 0.123480946 -0.20553455
000200 c3 22 ce bc a0 f7 ca bd 09 47 2a bc 73 d2 d5 3d
       -0.02516306 -0.09910512 -0.010392913 0.10440531
000210 ce 35 1f 3e 41 cb 44 3d 80 8a 6d 3e a9 80 1c 3e
       0.15547869 0.0480454 0.23197365 0.15283455
000220 2c 14 83 3c e3 37 c6 bd f7 e8 6b 3d d0 61 82 bc
       0.01600083 -0.09678628 0.05759522 -0.015915781
000230 78 08 83 3e 6e b0 0e 3e 0d d0 1a bd a6 e8 09 be
       0.255924 0.1393449 -0.03779607 -0.13467655
000240 d5 94 5f 3d 90 9a 5a 3e 89 52 3e 3e c8 f3 8a bd
       0.054585297 0.21348023 0.18586172 -0.06784779
000250 2e 33 e7 bd 74 3f 3d 3e 79 97 ea bd 7a 0d ac 3c
       -0.112890586 0.18481237 -0.11454672 0.02100252
000260 a7 49 9b bc bb a6 ea bd 3b 49 76 3d 46 65 49 3e
       -0.018956019 -0.114575826 0.06012843 0.19667539
000270 0a 49 2d 3d b9 24 18 be 56 26 74 bd 03 c3 16 be
       0.042305984 -0.14857759 -0.059606872 -0.14722829
000280 bb da a0 bd c0 0a 90 3e 5b 7d 0d 3e 97 24 9b be
       -0.078542195 0.28133202 0.1381735 -0.30301353
000290 93 e4 52 3d 37 bf b7 3e e4 41 07 3e 90 30 9d 3d
       0.051487517 0.35888073 0.13208729 0.07675278
0002a0 a6 dd 15 3e b5 d2 d6 bd 90 27 1e 3e 76 50 c0 bd
       0.14635333 -0.10489408 0.1544478 -0.09390347
0002b0 6e 85 3e 3e 72 9b a8 bd 6e 41 15 3e f4 f7 51 be
       0.18605587 -0.08232774 0.1457574 -0.20504743
0002c0 c9 77 be 3c 0c 6e f8 3d b2 ce 02 3d 7b e5 d0 3c
       0.023250477 0.12130365 0.0319354 0.02550005
0002d0 a1 0c d3 bd 74 95 09 be dd 87 14 3e 03 23 05 be
       -0.10305143 -0.13435918 0.14504953 -0.13001637
0002e0 a0 af 64 3d bc 00 b8 bd 41 da 94 3c 0e a5 2b 3e
       0.05583155 -0.08984515 0.018170478 0.16762182
0002f0 23 fb c7 3b ce 1b 59 be 39 36 aa 3d 3a 10 1b 3d
       0.006102936 -0.21202013 0.083111234 0.03785727
000300 e9 70 4d bc df 66 f5 be ef 5a 58 be f3 e1 6d be
       -0.012539127 -0.47930047 -0.21128438 -0.23230724
000310 81 7e 88 be 91 17 ad 3e ed 10 b4 3c e6 f3 c7 3b
       -0.26659015 0.33807042 0.021980727 0.006102073
000320 88 3e 18 bb 47 13 dc bd 62 35 48 be c2 9a 1c 3d
       -0.002323063 -0.10745864 -0.19551614 0.038233526
000330 1f 5b e3 3d 58 0b c6 bc c7 4e 8e bd 20 98 51 3d
       0.11101364 -0.024175331 -0.06948619 0.05117047
000340 32 c6 91 3c 56 70 cd 3d e7 78 ed 3c b6 ea 2a 3d
       0.017794702 0.10031192 0.028988315 0.041727744
000350 bf 3f 52 be 46 93 ca 3e 3e f4 35 3b 33 c8 9d bd
       -0.2053213 0.39565486 0.0027763988 -0.077042006
000360 cb 11 3a be 06 ba 34 be 3c 7e 2e 3e ae 43 70 3e
       -0.1817085 -0.17649087 0.17040342 0.23463318
000370 42 54 ab 3c 33 d8 ec bd 47 c6 20 3e 44 c8 8c be
       0.0209142 -0.11564674 0.15700637 -0.2749654
000380 34 a0 3a 3c d3 d6 4a 3e bb 09 9e 3d 42 17 b7 bd
       0.011390734 0.19808511 0.077167 -0.08939983
000390 dc 94 b9 be 40 fb 3b bd ab 3b 9b 3e b0 a9 2d bc
       -0.36246383 -0.045893908 0.3031896 -0.010599539
0003a0 fa 9c 9c 3e a5 86 96 3e fe 5b 13 3e 3d 7d 2b 3e
       0.30588514 0.293996 0.14390561 0.16746993
0003b0 e7 45 87 be 8f 10 3e be 23 5f 81 3e 55 89 1d 3d
       -0.2642052 -0.18561004 0.25267896 0.03846105
0003c0 59 27 d0 3d 2c 69 9e 3e 12 e0 03 3e 17 00 18 3e
       0.10163755 0.30939615 0.12878445 0.14843784
0003d0 fd 0c 0f 3e 3a 2c 0c 3e 0a 30 e4 3b 85 1d 62 3d
       0.13969798 0.13688746 0.0069637345 0.055203933
0003e0 25 b8 16 3e 01 c5 a7 bd 16 6d 40 be a2 4d 2b 3d
       0.14718683 -0.081918724 -0.18791613 0.041822083
0003f0 8c a3 8c 3d 00 87 03 3e 7b c2 63 3d 8a 1e 1b be
       0.068671316 0.12844467 0.055605393 -0.15148368

weight_hh_l0 f4 [128, 32]
000000 3d ed 38 3e 38 53 2a be 10 2f 13 be b3 af 38 3e
       0.18059249 -0.16633308 -0.14373422 0.18035774
000010 11 63 39 3e af a2 af bc 3c 23 3f be e2 5b 37 be
       0.18104197 -0.021439878 -0.18665785 -0.17906144
000020 26 62 e8 bd 1a 3e dd bd da 46 a5 3d 01 69 2d bc
       -0.11346845 -0.108028606 0.080701545 -0.010584117
000030 ad a8 1e 3e 1a 43 cd bd 11 8a 08 3e 39 69 d8 bd
       0.15494032 -0.10022564 0.13333918 -0.10566945
000040 00 9e c7 bb b5 f8 7d 3d 2b fd ee 3d 38 f6 ab 3d
       -0.006091833 0.062004764 0.11669382 0.08396572
000050 e3 41 1c 3e 44 54 76 3c cc 35 ba 3d 76 25 8d 3d
       0.15259509 0.015034739 0.09092292 0.06891911
000060 d1 ea 21 be aa 6e 9d bd d2 b1 cb bd 44 4c e3 3b
       -0.15812232 -0.07687123 -0.09946026 0.006936582
000070 37 19 a7 3d 11 3f 90 bd f2 90 bd bc 7e b9 fe bd
       0.08159106 -0.07043279 -0.023140404 -0.124377236
000080 19 2d 39 3e d1 fa a2 3d d5 dd 2a be fb 99 58 3d
       0.1808361 0.07957996 -0.16686185 0.052881222
000090 5c f8 5a bd dd 1f e4 3c 9d 7f 7c bd c8 a4 9e 39
       -0.05345951 0.027847225 -0.06164514 0.0003025888
0000a0 33 51 34 3d a1 3c 30 3e 6e 66 6b 3d 8e c6 e4 3c
       0.04402275 0.17210628 0.05747073 0.02792671
0000b0 09 04 50 3e ec 99 0c be 73 e9 13 be 5a bd 22 bd
       0.2031404 -0.13730592 -0.14444523 -0.03973136
0000c0 0f da 82 bc 93 13 9a 3d 21 07 01 3e 73 e1 20 3e
       -0.015973119 0.07523265 0.12600376 0.15711002
0000d0 37 6b 30 be 64 14 74 bd c4 40 a5 bd c8 0b 0b bd
       -0.17228399 -0.05958976 -0.08068994 -0.033946782
0000e0 11 b5 bf 3c 39 37 27 3b 32 fe 86 bd fb 46 47 3e
       0.023401769 0.0025515093 -0.06591453 0.1946067
0000f0 6a f0 df 3d 5f 10 2d be de dd 11 3e a7 8c 19 be
       0.10934527 -0.16900776 0.14244792 -0.14995061
000100 b3 21 b6 bd b0 60 fc bd 33 b4 06 be 7d cb 75 be
       -0.08893146 -0.12323129 -0.13154678 -0.24003406
000110 12 1d fe bd ae de d5 bd b3 a1 3b be 07 6c eb 3c
       -0.124078885 -0.104428634 -0.18323402 0.028738035
000120 51 a8 20 be 53 ed 0a 3e ba e6 2a be 0d b8 11 3e
       -0.15689208 0.13567095 -0.16689578 0.14230366
000130 08 af 6b bd ce 05 27 3e 4e 15 e3 bc 64 f6 1e 3e
       -0.05753997 0.16310808 -0.02772012 0.15523678
000140 0c 84 91 be f9 cd 3b bd 7b c0 b9 bc 54 0e 70 bd
       -0.28421056 -0.045850728 -0.02267479 -0.058607414
000150 50 54 a5 bb 2b 45 d4 3d 17 21 43 bd 8a 64 6e bd
       -0.005045451 0.10364755 -0.04763898 -0.05820135
000160 ea bb c9 3b 19 fe 23 3e d3 98 e3 bd 60 40 17 be
       0.0061564343 0.160149 -0.11113133 -0.14770651
000170 5a 3f 9c 3d ce 28 de 3c 61 2d 6f be f6 6a 1d ba
       0.07629271 0.027119067 -0.23357154 -0.0006005013
000180 65 44 87 bd ca 80 92 bd c5 ab 79 be ec 4d ea bc
       -0.06604842 -0.07153471 -0.24381931 -0.02860161
000190 10 aa b7 3d 4e 0d 61 3e 49 1d ca bd 1e 18 20 be
       0.08967984 0.21977732 -0.09868867 -0.156342
0001a0 d6 e6 65 3e d0 cb 0a 3d ed 86 4f 3e cc 11 a2 bc
       0.22451338 0.033885777 0.20266314 -0.019783877
0001b0 ff 11 9e 3d ea 54 e9 3b 98 f8 58 be 7c 2e 59 be
       0.07718276 0.0071207182 -0.21188581 -0.21209139
0001c0 d3 92 36 3c ef eb 6f bb b7 54 6e 3e ee 75 be 3b
       0.011143404 -0.0036609133 0.23274504 0.005812398
0001d0 62 dc 29 be 0d 88 9a bd 69 df 72 be e3 8f 80 be
       -0.16587976 -0.07545481 -0.23718037 -0.25109777
0001e0 de 1c 13 be 24 48 91 bc 2b bc 00 3e 3e 0d f1 3d
       -0.1436648 -0.017734595 0.1257178 0.11770104
0001f0 af 2a c1 3c 72 f2 b1 3d d3 92 70 3e c0 dc 12 be
       0.023579923 0.08688821 0.23493509 -0.14342022
000200 2a 28 1b 3e 8a 50 1b be 2d 39 5e be bc 1b 0a 3d
       0.1515204 -0.15167442 -0.21701498 0.033717856
000210 6a 78 e5 bd 81 14 b1 3d 1d a8 55 3c db 6a f7 bd
       -0.11204608 0.08646489 0.01304057 -0.12080928
000220 43 a9 2f 3e bf b4 40 3c 5e 60 38 3c 02 d7 a0 bd
       0.17154412 0.011761843 0.0112534445 -0.078535095
000230 49 65 54 3e 17 7f f3 bd fa 89 01 be b7 23 a0 bd
       0.20741762 -0.11889475 -0.1265029 -0.07819312
000240 a4 d1 81 3d 33 40 02 3c ad 84 a9 bd 7d 3a 36 3e
       0.06338814 0.007949877 -0.08277259 0.17795749
000250 7f c6 b8 bd 77 09 eb bd c2 0b cc bd ee 84 cf 3d
       -0.09022235 -0.11476415 -0.0996318 0.10132776
000260 ce cf c4 bd 45 69 d4 3c 47 75 5e bd 8a 39 88 bd
       -0.09609948 0.025929103 -0.054311063 -0.066516
000270 45 22 0f 3e 5e c8 c1 3d b9 de 09 3e 9d f2 02 b9
       0.13977917 0.09462045 0.13463868 -0.00012488147
000280 d5 51 3f 3e b4 22 48 be b6 55 61 be 32 b9 83 3e
       0.1868356 -0.19544488 -0.22005352 0.2572723
000290 30 be b8 3d d0 d0 f8 bd ae 72 e8 bd 46 f1 49 3d
       0.090206504 -0.12149203 -0.113499984 0.049302362
0002a0 8c 0c 01 bd a3 70 e7 3c a5 bd e4 3d 94 9d c1 bd
       -0.031506106 0.028251952 0.11168984 -0.09453884
0002b0 00 13 2d bd ef 95 3f 3d 71 dc 7d bd 02 cd 58 be
       -0.042254448 0.046773847 -0.061977807 -0.21171954
0002c0 32 5b 00 3e c1 97 0c 3d 1d 41 84 3e 77 2e 19 bc
       0.12534788 0.03432441 0.25830927 -0.009349457
0002d0 b6 e9 51 3c 6a 25 1e 3e 28 7e 95 3d f4 45 dd 3c
       0.012812069 0.1544396 0.07299453 0.027010895
0002e0 40 f6 64 bd 34 af ef 3c a1 ca 14 bd 57 bb 26 3d
       -0.055898905 0.029258348 -0.036326054 0.040706005
0002f0 d1 93 00 3e 00 2f 51 bd 37 0f 83 3d 8b c0 19 be
       0.12556387 -0.051070213 0.063993864 -0.15014856
000300 c6 33 be 3d b9 b9 67 bd 37 23 9a bd 0a 73 17 be
       0.09287219 -0.056573603 -0.07526248 -0.14789978
000310 e7 6b f9 3a 76 e6 b9 3d 99 d1 55 bc b8 bd 32 bd
       0.001902935 0.0907716 -0.01305046 -0.04363796
000320 b0 a7 0b bd af 4c ad 3d 30 84 2e 3e 59 2b d4 bd
       -0.034095466 0.08461892 0.17042613 -0.103598304
000330 5c 4f cd bd f8 7f 40 bd a5 f1 20 3e 6a 9f 59 3d
       -0.10024902 -0.04699704 0.1571718 0.053130545
000340 2a 0a 67 3d bb 54 5d 3e 19 6c 48 3d 02 00 6f bd
       0.056406178 0.21614353 0.048931215 -0.058349617
000350 e1 81 c8 bb 50 2c e6 3c ca b9 32 be 01 a6 13 be
       -0.0061189984 0.028097302 -0.17453685 -0.14418794
000360 6b dd 74 bd fb ea b7 3d ca 83 0e 3e c7 73 4a 3d
       -0.059781473 0.08980366 0.13917461 0.04942682
000370 8f f7 4e 3d a3 c4 a7 3d 75 6e 6e 3c 5d cc d5 3c
       0.05052906 0.08191802 0.014552702 0.026098425
000380 c5 e4 d3 3d 68 12 cf 3d db ad 7d 3d 88 83 b0 3d
       0.10346369 0.101109326 0.06193338 0.086188376
000390 9b 98 17 bd d3 09 cd 3c 6b 6b a9 3b 6e 5f 57 3d
       -0.03701077 0.025029099 0.005170276 0.052581243
0003a0 23 b4 f5 3d ad 44 75 bd bf 91 b7 3d 19 c7 63 3d
       0.11997249 -0.059879947 0.08963346 0.055609796
0003b0 10 12 1d bd 65 84 39 bd b4 a5 3c 3e 93 f2 95 bc
       -0.038347304 -0.045292277 0.18422586 -0.018304145
0003c0 59 25 23 be f9 18 f8 3d 6b 16 66 bd 5f 4e c9 3d
       -0.15932216 0.12114138 -0.056173723 0.09829401
0003d0 eb 1b 14 be 31 ed 2e 3e f4 e0 cb bd 36 9a d9 3c
       -0.14463775 0.17082669 -0.09955016 0.026562791
0003e0 c5 5b 80 3d be 68 85 bd 10 d6 cd bd 58 73 01 be
       0.06267504 -0.065141186 -0.10050595 -0.12641656
0003f0 6a f8 18 bc 9c 2a 4b 3d b8 00 31 3e d6 49 06 be
       -0.00933657 0.049601182 0.1728543 -0.13114104

bias_ih_l0 f4 [128]
000000 01 8c 2c be 50 a4 ac bd e7 e5 10 3e 4e d7 b0 be
       -0.16850282 -0.084297776 0.14150201 -0.34539264
000010 e5 e1 1f be 31 ed 88 be 74 a9 d2 bd eb 5f c6 bc
       -0.15613516 -0.26743463 -0.10286227 -0.02421566
000020 13 ec 24 be d8 30 3d bc e6 ba 13 be 77 d1 1e be
       -0.1610568 -0.01154729 -0.14426765 -0.15509592
000030 a7 5a f4 bb 41 6f c8 bd 4e 88 79 be 2c 66 3e bc
       -0.0074570957 -0.09786845 -0.24368402 -0.011621039
000040 51 20 c7 bc e7 08 54 be 48 ac 53 be 8d 82 51 bd
       -0.024307402 -0.20706521 -0.20671189 -0.051149894
000050 f5 cd ee bd da 9e 2d bb ac e2 3c be 1e d1 89 be
       -0.11660377 -0.0026492388 -0.18445843 -0.26917356
000060 a4 a1 97 bd 50 23 da bd df 3d 37 be 28 da 85 bd
       -0.074038774 -0.106512666 -0.17894696 -0.06535751
000070 9e f5 17 be 62 94 4f be 33 cf 84 bc a7 75 8c bd
       -0.1483979 -0.20271447 -0.016212082 -0.06858378
000080 46 97 0c be b9 de 25 bd 46 92 8a 3e 0d de 50 3d
       -0.13729581 -0.040495608 0.27064723 0.050993014
000090 a1 a9 ef bc 81 e7 74 3e 08 6f 9b 3d f6 6e 0d bc
       -0.02925569 0.23916437 0.07589537 -0.008632412
0000a0 dc 87 30 3e 78 03 07 3e 42 3e dc 3d f4 e3 c3 3c
       0.17239326 0.13184917 0.10754062 0.023912407
0000b0 0a 88 bd bd 29 03 6e bd db db 40 3e 73 29 0e 3e
       -0.09254463 -0.058108483 0.18833868 0.13882999
0000c0 80 cd f4 3d 6b f2 30 3e 83 5b 47 be fa 01 9a 3d
       0.119532585 0.17279975 -0.19468503 0.07519908
0000d0 b4 48 be bc 6d 55 39 be 82 63 5b bd b6 5e 21 3d
       -0.023228027 -0.18098994 -0.053561695 0.039396964
0000e0 a8 3f 6f 3b 40 50 e5 3e 77 bb ec 3b 24 6c d4 3d
       0.0036506448 0.44787788 0.007224496 0.10372189
0000f0 49 f3 a4 3d a7 60 50 3d 24 45 a0 bd 31 66 3c be
       0.080542155 0.050873425 -0.078256875 -0.18398358
000100 d1 8a d3 bd 9e 0b 36 be fe 7b 61 3d 5c 0c 8c 3d
       -0.103292115 -0.17777869 0.05504989 0.06838295
000110 0d ab 51 3e 7f 1a f8 bc 3e 4b f6 3c a8 aa 7c 3d
       0.20475407 -0.030286072 0.030065175 0.061686188
000120 7f 86 4f bc 06 66 f6 3d 9e 9b 14 3e 79 18 ca bc
       -0.012666344 0.12031178 0.14512488 -0.024669873
000130 5f fe 1f 3e 2a 1d 9d bd 82 b9 42 bd 7e 64 43 3d
       0.15624379 -0.07671578 -0.047540195 0.04770326
000140 e9 2b af 3d 88 26 6c bd 52 8a aa bb 8a b0 ad 3c
       0.08553297 -0.057653934 -0.0052044773 0.021202344
000150 97 74 46 be e5 25 41 bb 42 b5 fd bc d9 c6 df 3c
       -0.19380413 -0.002947205 -0.03097022 0.027316498
000160 c9 b8 58 3d bf 49 ef bd d2 12 fc bc 9f 49 93 3d
       0.0529106 -0.11683988 -0.030770693 0.071917765
000170 a4 bd ec bd 5d 20 1d be c3 67 31 3e 5d 9a 89 bd
       -0.115596086 -0.15344377 0.17324738 -0.067188956
000180 9b 9d 38 be 86 5f 27 3d 2f 9b 0b 3e dc 9a 4e be
       -0.18028872 0.040862583 0.13633417 -0.20176262
000190 c7 c8 49 be 9d ef 6c be 22 1d c6 bc 77 54 b8 bd
       -0.19705497 -0.2313828 -0.024183813 -0.090004854
0001a0 95 4a 07 3c 31 8b 7c bc b4 3c f4 3d 29 9b a3 bb
       0.008257528 -0.015414045 0.11925641 -0.0049928618
0001b0 c4 bb 52 be c6 38 46 be d4 c6 0a be 10 07 0c be
       -0.2057944 -0.19357595 -0.1355241 -0.13674569
0001c0 7a 71 4c be cf 20 c7 ba 65 d3 d6 bd 29 28 03 be
       -0.19965163 -0.0015192273 -0.10489539 -0.12808289
0001d0 c1 13 29 be cf ea b2 bb 67 ab 04 bd b3 01 a8 bd
       -0.16511442 -0.0054601203 -0.032390025 -0.08203449
0001e0 ed 29 6c bd c2 34 95 bd d5 a7 b0 3c 94 a7 b7 bd
       -0.05765717 -0.072854534 0.021564404 -0.0896751
0001f0 dd 61 71 3d 61 87 ef bd 2f bf 4b bd 3f 3e 32 be
       0.05893122 -0.11695743 -0.049742874 -0.17406558

bias_hh_l0 f4 [128]
000000 60 e4 81 be c4 8d d4 bd 93 f7 21 be dc 12 ad be
       -0.2536955 -0.10378602 -0.15817098 -0.3380345
000010 a9 85 d7 3d b4 d1 aa be 83 59 3c bd 5d fb 07 be
       0.105235405 -0.33363116 -0.045983803 -0.13279481
000020 cb 37 9b bd 93 2d f5 bd 49 93 2f bd 2d aa 8b 3c
       -0.07579001 -0.11971583 -0.04286507 0.01704892
000030 a8 ef 8e 3d fc 41 34 be 12 e8 3a 3d 33 e8 e2 bd
       0.069793046 -0.17603296 0.045631476 -0.11079445
000040 ab c5 b2 bc 61 64 30 be 99 3b b2 be ef 32 28 bd
       -0.021822771 -0.17225792 -0.34811094 -0.0410642
000050 ef a0 b5 bd a2 c6 98 be f4 fa d6 bd 78 ab 07 3d
       -0.08868586 -0.29839045 -0.10497084 0.03312251
000060 a2 3d 97 be 38 c9 b4 bd 32 81 0a be ec db b3 bd
       -0.2953921 -0.08827442 -0.13525847 -0.08782181
000070 1d 38 80 be 8a 31 35 be b7 cf 2d 3d fb 19 7a bd
       -0.2504281 -0.17694679 0.04243442 -0.061059933
000080 da ba 15 be ed 6c 4c 3e 90 aa d0 3e 58 e6 67 bd
       -0.1462206 0.19963427 0.4075513 -0.056616157
000090 9b 0e 22 bd 39 d8 ee 3d 46 b3 30 3d 6d 7d a5 3d
       -0.03956471 0.11662335 0.04313972 0.08080564
0000a0 1e 81 d9 3d e2 62 e9 bd 90 9f 72 3e 57 49 85 3c
       0.1062033 -0.113958135 0.23693681 0.016270323
0000b0 f8 fa cf 3d ef 63 e6 3d 4b c3 fe 3d 2f 2e d1 bd
       0.1015529 0.112495296 0.12439593 -0.10213887
0000c0 63 b5 57 3e 39 bd 2f 3b 67 88 75 be 92 84 b5 3e
       0.21065287 0.0026815666 -0.23977815 0.35452706
0000d0 d3 c1 c0 bd bf d0 c6 bd 9b 20 34 bd 9c d1 50 3e
       -0.09411969 -0.09707784 -0.043976407 0.2039246
0000e0 d0 0e 60 be 4a 47 9e 3e 1e 6d e6 bc 5b 07 f8 bc
       -0.2188065 0.30913764 -0.028128203 -0.030276945
0000f0 8e 5d 84 bd 9f 8a 62 3d a5 13 3f 3c cc d9 11 be
       -0.06463157 0.05530798 0.011662398 -0.14243239
000100 86 29 4f 3d ad 55 a5 bb b0 a1 30 3d 8c 99 44 bc
       0.05057671 -0.0050456137 0.043122947 -0.011999499
000110 b5 e0 a5 3c 0e 3c 3a bc 7f 43 fa bd 7a c0 96 bd
       0.02024875 -0.011366857 -0.12219905 -0.07360931
000120 ee 5c 2a bd e8 d6 b0 bd 34 a9 91 bc d2 5e f1 bd
       -0.04159253 -0.0863474 -0.017780878 -0.11785664
000130 61 f2 7c bd 28 83 f4 bd 6f b0 1b be b5 f3 02 bd
       -0.061754588 -0.119390786 -0.15204023 -0.0319707
000140 75 ec b5 bd a6 c1 e3 bc d2 80 8d bc 16 47 b9 3d
       -0.08882991 -0.0278023 -0.01727334 0.09046762
000150 83 21 1b 3e 9f 0f 91 bd 46 ea ac bd 05 a4 3c be
       0.15149502 -0.070830576 -0.084431216 -0.18421943
000160 81 06 c5 bd 8b d9 2a bd 78 5d 8c bd fe f9 d0 3d
       -0.09620381 -0.04171137 -0.06853765 0.10203932
000170 f9 96 63 bd 34 ba 73 bc 48 22 cd bd af 34 b5 bc
       -0.0555639 -0.014875937 -0.10016304 -0.022119848
000180 59 07 1b be 7c d4 27 bd a2 5a 11 3d f7 c8 b5 bc
       -0.15139522 -0.040974125 0.035486825 -0.022190554
000190 e1 e7 ce bc da 3a f5 bc 1b 85 90 3b 92 2b 84 be
       -0.025257053 -0.02993529 0.0044103987 -0.25814492
0001a0 4e 7f ba 3d 94 29 c3 bd eb 36 8e 3d f5 f6 80 bd
       0.09106313 -0.09529415 0.069440685 -0.06297103
0001b0 28 06 46 be f3 cf dc 3d 59 b7 1b 3d b7 ea 13 3d
       -0.19338286 0.10781851 0.03801665 0.036112513
0001c0 2d 80 05 3d 3f 5f 01 be ad 3d d2 bd cc ad 56 3d
       0.03259294 -0.1263399 -0.1026567 0.05241184
0001d0 35 b3 88 bd d5 57 f9 bc 93 00 1c bd 14 62 15 bd
       -0.06674806 -0.03043739 -0.038086485 -0.036470488
0001e0 db e2 85 3d 85 0a 86 3b b8 fa f3 bd 80 b3 07 be
       0.0653741 0.0040906095 -0.11913055 -0.13252068
0001f0 e7 da 64 bd 33 a2 4f be ab f5 ae bd fb 2b 23 be
       -0.055872824 -0.20276718 -0.08542951 -0.15934746
